actividad4/mnist_detector/src/my_network.pt (torch, 84985 bytes, 6 tensors)

conv1.weight f4 [16, 1, 3, 3]
000000 30 eb da 3e f3 10 fc 3d 6e 5b 71 3e cf d8 93 3e
       0.4275756 0.1230792 0.23570034 0.2887635
000010 c1 39 bf 3e 9c 61 91 3e 80 96 18 3e ae 2e e4 3e
       0.3734875 0.28394783 0.14901161 0.44566864
000020 80 1f e3 3e d5 3b a6 3e 11 8b 77 be d6 f8 9c be
       0.4435997 0.32467523 -0.24174143 -0.30658597
000030 89 5d c4 be 6d cf 8d 3d 95 26 87 be 86 63 79 be
       -0.38352612 0.06924329 -0.26396623 -0.24354371
000040 75 55 22 bc ca a6 a9 3e 5e de c8 3e 07 02 bd 3c
       -0.00990807 0.33135062 0.39232153 0.023072256
000050 92 0f cd 3e 0e b4 2e 3e 61 11 fb 3e 38 97 80 bd
       0.40050942 0.17060873 0.49036697 -0.06278843
000060 cd 26 5f 3e 54 01 c6 3e 8b 30 e3 3e 25 c2 ac be
       0.21792145 0.38672888 0.44372973 -0.3374187
000070 a8 db 19 be 75 e6 23 be 38 78 bd be 00 f4 c1 39
       -0.15025198 -0.16005881 -0.37005782 0.00036993623
000080 bb f6 60 be b8 f7 18 bc d9 6c 66 bd d9 52 11 3e
       -0.2196912 -0.0093364045 -0.05625615 0.1419176
000090 2c c1 d1 3e bd 9d dc bd 78 c5 91 be 8b 52 ac 3e
       0.4096769 -0.10772274 -0.2847097 0.33656725
0000a0 08 25 2c 3e 25 00 b1 be 26 cc 37 3d 57 e0 89 3e
       0.16811001 -0.34570423 0.044872425 0.2692897
0000b0 73 0d 8d be 9f 03 2d be 08 83 b8 3e 77 e0 6c 3e
       -0.27549323 -0.16895913 0.3603747 0.23132502
0000c0 c2 a8 b5 be 90 84 b8 3e 01 5a 13 3d 22 b8 04 bf
       -0.35480314 0.36038637 0.035974506 -0.51843464
0000d0 cc 29 3b 3e d4 78 3e 3e 7d 17 c1 3e 2c 70 ee 3e
       0.18277663 0.1860078 0.37713233 0.46569955
0000e0 6f c3 0a 3f 76 8c 87 3d 28 40 17 be 6a d4 a3 3e
       0.5420446 0.06618588 -0.14770567 0.31997997
0000f0 4b ae 9b be aa 18 9b 3e 2b c1 17 be 3f fb 79 3e
       -0.30406412 0.30292255 -0.14819781 0.24412249
000100 dc f1 43 be cd 70 36 3d 3f 45 9c bc 2e 03 09 be
       -0.19135231 0.04454117 -0.019075988 -0.13380119
000110 d6 b7 b1 be e6 66 0d bd ec 7e 8d be 1e 7a d6 3e
       -0.34710568 -0.03452196 -0.27635896 0.41890043
000120 22 5d 99 be 83 f8 f9 bd ed 4e a3 3d fa 1f d7 be
       -0.29953867 -0.12205603 0.07974038 -0.42016584
000130 df 82 ce be 73 c3 fd be 27 f3 09 3e f9 4e 41 be
       -0.40334222 -0.49563178 0.13471662 -0.18877782
000140 93 e7 e9 be 8a 96 79 be b4 9a 13 3b 92 6d b9 3d
       -0.4568449 -0.24373832 0.002252263 0.09054102
000150 93 b1 bd 3e f4 80 c0 3e 17 bc 6c 3e 28 d8 bb bd
       0.3704954 0.37598383 0.23118626 -0.09172088
000160 5f 42 96 3e 1b e6 01 3f ed 68 68 3d 47 bf 81 3d
       0.29347512 0.5074174 0.05674069 0.063353114
000170 c8 39 10 3f 48 11 f9 bb dc 8f ba 3d 81 ff 00 3f
       0.5633817 -0.007600937 0.0910947 0.5038987
000180 18 20 14 bf 9a 82 c6 be f7 aa 36 be 8b f5 1a 3e
       -0.5786147 -0.38771516 -0.17838655 0.1513273
000190 24 8b 83 bc d6 62 50 3c 84 b7 74 be da 1e d9 be
       -0.016057558 0.012718877 -0.2389813 -0.4240635
0001a0 76 98 c2 be bd d6 85 be 22 e5 56 be 6d 01 79 be
       -0.38006943 -0.26140395 -0.20985845 -0.2431695
0001b0 93 28 fa 3e fb 19 92 3e 9a 3f be 3e 7f f7 a2 bb
       0.4885908 0.28535447 0.371579 -0.0049733515
0001c0 1a ea fc bc 80 85 48 bd 2c 61 de be e2 6d 0a be
       -0.030873347 -0.04895544 -0.4343351 -0.1351848
0001d0 7e 60 26 be 2f 14 7a be 41 48 85 be ee df 98 be
       -0.16247746 -0.24421762 -0.26031688 -0.29858345
0001e0 0e fc 7f be 2e 3f 93 be af 8e 32 be 70 82 18 3e
       -0.24998495 -0.2875914 -0.17437242 0.14893508
0001f0 9d 49 20 be 8b fe 64 be 3b 27 3c 3e 84 09 8e 3e
       -0.15653081 -0.22362725 0.1837434 0.27741635
000200 08 08 6d 3e 3b 93 27 3e a7 b5 bb 3e c7 4d 79 bd
       0.23147595 0.16364758 0.36662027 -0.06086519
000210 aa 62 34 3e 55 a5 9c 3e ca 27 26 3d 66 9d a1 be
       0.17615762 0.30594888 0.04056529 -0.31565398
000220 92 83 0b ba 1d 5c ac 3d ca b8 1a 3e fe 02 ae 3e
       -0.00053220347 0.08416007 0.15109554 0.33986658
000230 68 27 bd 3e ff 9a c3 3e fc 7f b4 3e a1 9b e4 3e
       0.36944127 0.3820419 0.35253894 0.44649985

conv1.bias f4 [16]
000000 e0 1f f1 bd 53 eb 0f 3e 39 4a a7 3b ab de 66 3e
       -0.11773658 0.14054613 0.0051052836 0.22545879
000010 24 f8 15 3e 7b d2 ba 3e 68 e8 60 3e 1a 73 13 3e
       0.1464544 0.3648871 0.21963656 0.14399377
000020 41 ca cd 3e ab a4 25 3d 18 4f b9 3a 10 2d d7 3e
       0.4019337 0.040440243 0.0014137952 0.42026567
000030 4e b5 be bd cb 39 c4 3e bf 39 69 be 39 c6 7b 3d
       -0.09311925 0.38325343 -0.22775935 0.061468337

conv2.weight f4 [32, 16, 3, 3]
000000 c9 9a 35 be 1a 66 a7 bd fc 45 af 3c 86 1d 8e bc
       -0.17734827 -0.08173771 0.021395676 -0.017348062
000010 fd 48 b2 3c e7 f0 63 3d a9 cf 00 3e db da 9b 3c
       0.02176332 0.055649664 0.12579216 0.019025257
000020 52 19 80 3d e9 6a 97 bb ee 0c 96 3d bb 07 a3 bd
       0.062548295 -0.004620899 0.07326685 -0.07960459
000030 b3 94 ae 3d 8b e9 96 3c d3 04 38 be 4a cc 83 bd
       0.08524456 0.018421909 -0.1797059 -0.064354494
000040 0a e6 a8 bd d0 d0 ca bc 83 94 78 bd f9 e0 2d be
       -0.082470015 -0.024757773 -0.060688507 -0.16980352
000050 92 d9 d0 bc c0 d0 bf bc 9d 52 65 bd 32 03 07 3e
       -0.02549437 -0.02341497 -0.05598699 0.13184813
000060 b1 91 d6 3d 37 27 8a 3d 5c 34 db 3d 4a 69 2c 3d
       0.10477007 0.06745761 0.10703346 0.0420926
000070 10 20 7d 3c 6f fa 0d be 99 47 ab 3d 6a 08 a5 3d
       0.015449539 -0.13865064 0.083632655 0.080582455
000080 c7 b6 08 be 5c 46 7c bc 18 2e dc bd 45 7b f5 bd
       -0.13350974 -0.015397634 -0.10750979 -0.119864024
000090 40 bc 99 3d 33 b1 e7 bd f8 a2 28 3d 1c 26 ba bd
       0.07506609 -0.11313095 0.041171044 -0.090893
0000a0 53 a0 15 be 08 fc 9e 3d 02 9f b2 bd 13 7f ae bd
       -0.1461194 0.07762915 -0.087217346 -0.08520331
0000b0 c3 f9 ae 3c f2 e6 86 bd e6 a2 69 3d ce 21 c7 3d
       0.02135933 -0.06587018 0.057040118 0.097232446
0000c0 fd 91 3c bd c3 a2 00 3d 0c 16 0d 3c d6 52 a7 3d
       -0.046037663 0.03140522 0.008611213 0.081700966
0000d0 0e 2b 77 bb ea ee 57 3d 15 a4 20 be 75 5b 71 bd
       -0.0037714872 0.05271808 -0.15687592 -0.05892511
0000e0 30 ed 0e 3d ed 1f 04 be 4c fa 7a 3a 2c dd 1d 3e
       0.03489417 -0.12902804 0.00095740403 0.15416402
0000f0 4d fa fe bc e4 3d 39 bc 3d 4b a9 3d 45 66 3d 3d
       -0.031125212 -0.01130626 0.08266304 0.04624011
000100 ec bb d3 3d 2d e6 5c bd bd 94 8d 3d d4 25 9e 3c
       0.10338578 -0.05393045 0.06913135 0.019305147
000110 c3 8e 73 be 66 ec ba bd 9b 5b 18 3d 00 86 e3 bd
       -0.23784928 -0.09127121 0.037196737 -0.11109543
000120 2b f5 81 bd dd 23 67 3d 03 19 b6 bd 7a 05 81 3c
       -0.0634559 0.056430686 -0.08891489 0.015749682
000130 3c 16 0f bd c6 42 6f be 14 58 90 bd 11 13 81 3c
       -0.034933314 -0.23365316 -0.070480496 0.015756162
000140 85 78 0c be 05 0c 46 be b0 c9 26 ba 16 be c0 bb
       -0.1371785 -0.19340523 -0.0006362451 -0.005882035
000150 a9 83 b5 bc 07 0d 12 3e 93 7d 7b 3d ce 90 a0 3d
       -0.022157507 0.14262782 0.061399054 0.07840119
000160 8e 6f ea 3c 04 e2 20 3c 01 9c 48 be 9b d6 68 be
       0.028617647 0.009819511 -0.19590761 -0.22738115
000170 ad 3d de bd 81 a3 eb be e0 45 97 be 7d 99 25 be
       -0.108516075 -0.4602318 -0.29545498 -0.16171832
000180 f7 29 cd bd 85 94 ee bd bd fb 20 bd ac c8 cb 3d
       -0.1001777 -0.116494216 -0.039302576 0.099503845
000190 f7 4d a6 bc f1 5c 2f bd 91 35 22 bd 25 7f 87 3c
       -0.020300848 -0.042813245 -0.039601866 0.01654012
0001a0 dd aa 28 be 2e fd ef bc 9e ce 93 bd a1 43 0f bd
       -0.16471429 -0.02929553 -0.072171435 -0.034976605
0001b0 cb ab a2 3d 9b 32 38 be 2e 61 81 be 44 18 b0 be
       0.07942923 -0.17988054 -0.25269455 -0.34393513
0001c0 5e 18 c4 be e6 c3 30 be c5 36 07 bd 92 4c ca 3c
       -0.3829984 -0.1726223 -0.033011217 0.024694715
0001d0 7a 71 02 bc e9 d7 09 3d 04 7a 81 3d ba 20 02 be
       -0.007961625 0.033653174 0.06322101 -0.12707797
0001e0 38 16 5a bd b9 96 ea bd b5 37 b8 bd fb f0 a2 bd
       -0.053243846 -0.11454529 -0.08995 -0.079561196
0001f0 ea eb 96 bd 6e 96 27 be ab cb 2f be 78 f7 03 be
       -0.07369216 -0.16365978 -0.17167537 -0.1288737
000200 47 7f 73 bd 59 08 55 be 0b 3a 1a bd 86 f5 18 3e
       -0.059447553 -0.20803966 -0.03765301 0.1493741
000210 e7 a6 72 bb 29 94 3c 3e 66 c5 51 3d 8e ca 4f bd
       -0.003702575 0.18415894 0.051213644 -0.05073028
000220 04 5c 9a 3d a6 0f a1 3c 73 72 59 3c 66 cc 27 3e
       0.07537082 0.019660782 0.013271916 0.16386566
000230 7c a9 f6 3d b8 ca 08 3e 05 5a 26 3e 3e a3 31 bc
       0.12044045 0.13358581 0.16245277 -0.010842143
000240 0b b2 ba bb 44 90 65 3d 4e ff c7 bc c9 b1 20 3d
       -0.005697494 0.056045786 -0.024413731 0.03923205
000250 e8 d4 47 3d c0 04 8d 3c 4c 22 f2 bc 8b 25 9c bd
       0.048787028 0.017214179 -0.02955737 -0.07624348
000260 ed b0 56 bc 6c ed d4 bd 96 ff b2 bd e3 db 12 be
       -0.013103706 -0.10396847 -0.087401554 -0.14341693
000270 dd 68 d8 bd e3 4a 08 be 3b 3b b6 bb 21 f7 0e bd
       -0.10566876 -0.13309817 -0.00556126 -0.03490365
000280 8c 89 c5 3c da b0 b9 bd 1b ad d0 bc 1b 1a 40 3d
       0.024113439 -0.09066935 -0.025473168 0.046899896
000290 a4 ed cb 3d 1a cc 8c 3d b0 d1 dc 3c 96 94 65 3a
       0.09957436 0.06874867 0.026955456 0.0008757798
0002a0 09 9d cb bd b8 5f 42 bd 54 93 2e bd 3c 10 49 bd
       -0.099420615 -0.047454566 -0.04262097 -0.049087748
0002b0 0d b9 a5 bd 3c 2c c8 bd 66 6c bf bd b6 ad 93 bd
       -0.08091936 -0.09774062 -0.09346847 -0.07210867
0002c0 8a be 78 bd 7d fd e5 3c 50 87 51 3d c0 fb bd bc
       -0.060728587 0.028074974 0.051154435 -0.023191333
0002d0 cb a9 24 be 0b 13 10 be 06 c5 87 bd 0f 7b 86 bd
       -0.16080396 -0.14069764 -0.06629376 -0.0656644
0002e0 b3 e9 2d 3c f2 1a ec bd e5 53 fd 3a 00 53 22 bd
       0.0106148 -0.11528577 0.0019327371 -0.039629936
0002f0 90 43 1e be 2d d8 b3 bd 22 c5 d2 bd 3f af e8 bd
       -0.1545546 -0.08781467 -0.10291506 -0.113615505
000300 aa 61 47 bd 29 55 92 3c 80 df c6 3c bd e7 a8 bd
       -0.048677124 0.017862873 0.024276495 -0.082473256
000310 0f bd b7 bd 33 26 b2 3d e6 fe 87 3d a8 bf 39 3d
       -0.08971607 0.08698692 0.06640415 0.045348793
000320 08 f2 d6 3d 8e 05 90 bd 5c 4c 36 3d a9 0a 03 bd
       0.104953825 -0.070323095 0.044506416 -0.03199259
000330 12 f0 65 bc e8 8a c8 bd 1c 1c d8 3c 26 a0 d8 bd
       -0.014034288 -0.09792119 0.026380591 -0.10577421
000340 97 88 94 bd fe 24 a2 bd 82 a2 f9 bd a0 f5 b4 bc
       -0.07252615 -0.07917212 -0.12189199 -0.02208978
000350 c7 16 40 bc 8d 20 b7 3c 8c 60 e8 bc 2a 01 b7 bd
       -0.011724181 0.022354389 -0.02836635 -0.08935769
000360 ec 77 21 bd 03 e6 da bd d4 bf aa bd e0 57 04 bd
       -0.039421007 -0.106884025 -0.083373696 -0.032310367
000370 08 dd 19 bd 37 67 23 bd 33 4e 91 bc 0d 45 18 bd
       -0.037564307 -0.039893355 -0.017737484 -0.037175227
000380 44 a8 cc bb 0e 09 ff bc 27 0e bc 3d 25 78 b5 3d
       -0.0062456448 -0.031132247 0.09182387 0.088608064
000390 05 3b 8d 3d cb f4 2a 3b d0 67 a7 3d 54 9b ee 3c
       0.06896023 0.002608585 0.081740975 0.0291268
0003a0 e3 39 85 bd a9 1e 71 bd 7e cd c1 bd 07 12 70 bd
       -0.06505182 -0.05886713 -0.09463023 -0.058610942
0003b0 5d 2f 11 bd 7d e1 5d bd 7d d6 af 3c 5e fc 00 3e
       -0.03544556 -0.05417012 0.02146458 0.1259627
0003c0 76 08 ae bd 51 15 b4 bd 86 eb be 3d 95 21 d1 bd
       -0.084977075 -0.08793128 0.09322266 -0.102114834
0003d0 95 98 10 be b9 53 da bd 4c e5 95 bd 0f f3 61 bd
       -0.14120705 -0.106605 -0.073191255 -0.05516344
0003e0 0c 61 a0 bd 51 b6 b1 bd 6c b2 99 3d df ae 72 3d
       -0.0783101 -0.08677352 0.075047344 0.0592488
0003f0 3e 29 04 be c1 f0 f9 bd 44 9b eb bc ae e6 c9 3d
       -0.12906358 -0.12204123 -0.02876056 0.09858452

conv2.bias f4 [32]
000000 51 c1 67 bc 43 26 62 3d 10 40 d9 3c ae 6b 92 3d
       -0.014145211 0.05521227 0.026519805 0.071494445
000010 ef ac 52 bd c9 e6 2b bd 8b a0 2a bc 11 a2 9a 3d
       -0.051434454 -0.04196814 -0.010414253 0.07550443
000020 f8 f8 f3 3b 0a 4e 28 bd d7 25 8b 3d 86 3e e3 bd
       0.007445451 -0.04109005 0.06794327 -0.1109591
000030 19 2a 9a bc 9a 56 18 bd 2b ba e4 bd ec 79 9b 3d
       -0.018818902 -0.037191965 -0.11168321 0.07591614
000040 58 63 80 bc f6 49 d3 bc f0 2c aa bd 3f a5 70 bd
       -0.01567237 -0.025792103 -0.083093524 -0.05875134
000050 ac e1 dc bd 1d 7a fa ba ad b0 ad bd 5b 8e 8f bd
       -0.10785231 -0.0019109879 -0.08480964 -0.07009574
000060 e4 70 65 bd db 88 00 3d 2f 76 8d 3d de 32 1a 3d
       -0.056015864 0.031380516 0.06907307 0.037646167
000070 b4 99 ba bc db 2e 4d 3d cd a7 7a bc f1 2e 50 3c
       -0.02277837 0.050093513 -0.015298796 0.012706504

fc.weight f4 [10, 1568]
000000 82 87 d0 3c 3a f0 03 3c 2f db 9a 3a ca 60 2d bd
       0.02545524 0.00805288 0.0011814589 -0.042328633
000010 99 b6 b8 bd 1c 0e 67 bd c2 1a 87 3c c6 91 8b bc
       -0.09019203 -0.05640994 0.016492251 -0.017037284
000020 3f bd 27 3d 7e 9d 9a 3d 77 f4 2c 3d b5 cc b9 bc
       0.040951964 0.075495705 0.042225327 -0.02268062
000030 af be 9d 3b 8c af c8 3d 3e 19 e0 3d 43 f2 b1 3d
       0.004813991 0.09799108 0.109423146 0.08688786
000040 42 00 03 bc 70 f2 f7 bd c0 17 34 be fd 61 c3 bc
       -0.007995667 -0.12106788 -0.17587185 -0.023850435
000050 d7 2b 4b 3d a6 e9 5a 3d 49 c7 7c 3c 6e ed 45 3a
       0.049602356 0.05344548 0.015428373 0.00075503334
000060 fe 8d e5 bd 54 86 71 bc fb 0b b3 bc 5e 48 aa bc
       -0.112087235 -0.014741499 -0.021856299 -0.02078646
000070 c4 a1 0b bd 66 a1 2f bc 49 81 a8 bd 82 46 ba bc
       -0.03408982 -0.010719633 -0.08227784 -0.022738699
000080 e4 c0 42 3d 84 b7 0d 3d 26 ff 36 3d e6 53 12 bd
       0.047547236 0.034598842 0.044676922 -0.035724543
000090 3d 18 66 bd a4 33 a4 bd 92 83 07 3c 77 c0 71 3d
       -0.05617546 -0.08017662 0.008271115 0.05902144
0000a0 fa d2 9a 3c 33 4d 4f 3d b6 50 06 bd c1 c5 c8 bd
       0.01889943 0.050610732 -0.032791816 -0.098033436
0000b0 93 30 b1 bd 33 51 34 bc 36 82 81 3d d5 c0 78 3d
       -0.08651843 -0.0110056875 0.06323664 0.060730774
0000c0 88 28 1e bd aa ea d0 3c 5c 43 12 bd 0e ed be 3b
       -0.038612872 0.025502522 -0.03570877 0.005826599
0000d0 8a 0c 24 bc 6c 91 02 bd d1 18 3c bd d7 26 6d bd
       -0.010012755 -0.031876966 -0.045922104 -0.05789837
0000e0 d5 3e d6 3b eb 79 b7 ba 50 1c 87 3c 0b 67 06 3d
       0.006538252 -0.0013998126 0.016492993 0.032813113
0000f0 59 0f f7 bb 17 9c 98 bc 7c 30 bf bc 51 66 9e bc
       -0.0075396714 -0.018629117 -0.023338549 -0.019335898
000100 03 8f 4a 3d 8c aa 35 3d 81 4c 4a 3d a3 42 3e 3c
       0.049452793 0.0443521 0.049389366 0.011612567
000110 f1 9a a1 3b 89 39 60 3d 7d 26 03 3d 2a ba 3e 3d
       0.0049318005 0.05474237 0.032019127 0.04656426
000120 5d 8e bc 39 78 63 f3 bc 24 df 24 bd 36 df db bb
       0.00035964223 -0.029710516 -0.040251866 -0.0067099584
000130 d9 59 07 3d fa 4f 18 3d 98 6d 12 3c 3e c4 d0 bb
       0.03304467 0.037185647 0.008937262 -0.00637105
000140 e3 7e 7a bd 5a 20 01 bd 71 4a a8 bb 40 3c a1 3c
       -0.061156165 -0.031524993 -0.005135827 0.01968205
000150 61 57 9b bc d8 80 95 3c 12 74 c2 bc ee 3c 28 bd
       -0.018962564 0.018249914 -0.023736987 -0.041073732
000160 1f b4 b4 bc 06 8e 3f bc 2d 0f 1a bd 08 12 89 bc
       -0.022058545 -0.011691576 -0.03761213 -0.01673223
000170 6f 98 d9 bc e4 80 b1 3c 1f d9 a0 3b 9c 2f 6f 3c
       -0.026561944 0.021667905 0.0049086954 0.014598753
000180 c2 52 91 bc a1 ab e4 bc 14 0a bc 3c 2d 7e 63 bc
       -0.017739657 -0.02791387 0.022954024 -0.013885063
000190 1a 3c 1e 3c fa 2c ac ba 3d 46 49 bc e1 f7 4e bd
       0.009657884 -0.0013135963 -0.0122848125 -0.050529364
0001a0 bf ac 42 bd 11 66 84 bc 63 69 bb 3c 55 b4 d9 bc
       -0.047528025 -0.01616195 0.0228774 -0.026575247
0001b0 1b d4 36 3d 69 7c e6 3c a1 5e 3e 3d 7e db 05 3d
       0.044635873 0.028135495 0.046476964 0.032680027
0001c0 bd 36 48 bb a8 6f 83 bc bc 90 1f bc 89 c6 24 bd
       -0.0030550205 -0.016044453 -0.009739097 -0.0402284
0001d0 a2 03 83 3d 18 55 ab 3d 56 aa e9 3d b0 a6 88 3c
       0.06397177 0.0836584 0.11409442 0.016681045
0001e0 d6 72 9f bb ae 22 84 bb de 03 9d bd 43 d2 7e bc
       -0.0048659844 -0.0040324545 -0.07666753 -0.01555306
0001f0 f9 7c a4 bc 0d d8 37 3d 38 7c 44 3d 17 16 e7 3c
       -0.020079123 0.044883776 0.047970027 0.028208775
000200 b6 53 0c 3d 37 07 6f bd e4 3a 20 bd fb 41 a2 bc
       0.03425952 -0.05835649 -0.039118662 -0.019806853
000210 15 84 ab bc e9 69 02 bc 94 4b a3 ba e0 8e 32 3d
       -0.020937005 -0.007959821 -0.0012458437 0.043593287
000220 42 46 2f bc 5f fc 06 bd 62 a5 54 bd 4d 31 63 bd
       -0.010697903 -0.032955524 -0.051915534 -0.05546694
000230 f8 d4 aa bd f9 83 8a bc 5f 09 6f 3d e2 33 ae 3b
       -0.08341402 -0.016908633 0.058358546 0.0053162435
000240 1e 46 d6 bb 18 23 be bd 69 1c 97 bd 7f ab 93 3c
       -0.0065391203 -0.09284037 -0.07378466 0.018026112
000250 77 80 21 3b 8a e1 d8 ba 77 5d 3a bd 92 b7 36 3c
       0.0024643221 -0.0016546708 -0.04549929 0.011152165
000260 8c ba 68 3c da 2d e3 bc 68 ca 1c 3c 6b 26 2c 3c
       0.0142046325 -0.027731825 0.009569742 0.010507206
000270 5d 43 20 bd f0 77 c4 3b a1 d4 4a 3d df 2a 5e 3d
       -0.039126743 0.005995743 0.049519185 0.054240104
000280 67 4e ea 39 5e d3 16 3c 25 b3 c0 3c a8 9a 9c bc
       0.00044690372 0.009205667 0.023522923 -0.019116715
000290 73 34 82 3c 65 75 c1 3d 9d 4e 7e 3d 54 e3 0c 3e
       0.01589415 0.09446219 0.06208669 0.13758594
0002a0 20 73 8d 3c 2f 86 0e 3c f8 f5 54 bd ad a3 be bd
       0.01726681 0.008698984 -0.051992387 -0.093085624
0002b0 63 e5 1d 3c 5e a5 88 bb 32 50 ba 3d f6 1a b6 3c
       0.00963721 -0.004170104 0.09097327 0.022229653
0002c0 b7 53 81 3d f8 13 13 bd 84 15 bb bd 25 b7 61 bc
       0.063147955 -0.035907716 -0.09134963 -0.013776575
0002d0 14 b3 82 bc 66 24 de 3c d6 38 ab 3c ce 1b 79 3d
       -0.015954532 0.027116966 0.020901125 0.060817532
0002e0 be ff b3 3c c2 db 68 bd 5a f1 ab bd 30 dc 01 bd
       0.021972533 -0.056850202 -0.083956435 -0.031704128
0002f0 71 68 fa bc 42 1d a5 bc c4 ab a0 3b 58 64 cb 3c
       -0.03056738 -0.020155553 0.0049032886 0.024828121
000300 98 cb 7d 3c 0a 19 05 bd 2c bb 2d bd 46 b1 21 bd
       0.015490435 -0.032494582 -0.04241483 -0.0394757
000310 40 b1 3e bb f0 da b8 3b 28 e3 a7 3c 3d 51 9b 3c
       -0.0029097348 0.0056413338 0.020494059 0.018959636
000320 c7 22 92 bc ec d9 7a bc dd cd 5c bc f9 6e 23 bd
       -0.017838849 -0.015310746 -0.013476816 -0.039900754
000330 c4 a9 ae bc 94 67 ab bc f3 0c dc bc ba 4e 0c 3c
       -0.021321185 -0.020923413 -0.026861643 0.008563692
000340 85 39 03 bc 67 6c c1 3c 38 64 80 bc 0c 05 e5 bc
       -0.008009319 0.02361126 -0.015672788 -0.027956508
000350 79 9a f2 3c 8b 94 a2 bc c5 cc 7b bc a2 5a de 3c
       0.029614674 -0.019846221 -0.015368645 0.027142826
000360 bd 54 56 3d 5b 78 63 3d 3e 30 c5 3d 62 59 f0 3d
       0.052326906 0.0555347 0.09628342 0.117357984
000370 88 39 c6 3d 1d cc 06 bc ee cb fd 3c db ef bd 3c
       0.09678942 -0.008227375 0.03098103 0.023185661
000380 9d af 9c 3c 36 d8 9a 3d 31 f9 cf 3d 53 9c 06 3d
       0.019126708 0.0756077 0.10154951 0.032863926
000390 42 bf 6b bd 01 b8 bf 3c 81 ac d1 bc 3f 44 30 3d
       -0.057555445 0.02340317 -0.025594952 0.043033835
0003a0 92 db 9f bc dc b4 43 3d ae 3d ca bc a6 4a bc bc
       -0.019513879 0.047779903 -0.024687614 -0.022984814
0003b0 d7 ab 81 bb f1 44 47 3c 9d 94 ab 3c 9c d9 d9 bb
       -0.0039572525 0.012162433 0.020944888 -0.0066482555
0003c0 34 e8 a8 3c 4f c0 85 bd a4 ec 45 bc 40 8b a3 bc
       0.020618536 -0.065308206 -0.012080345 -0.01996386
0003d0 69 0b 4c bd 6a 8a 8f 3c 41 a0 14 bd 21 48 39 bc
       -0.04981557 0.017522056 -0.036285643 -0.011308701
0003e0 a7 9c 96 bc 3b 21 1c bd 59 14 2d bd 67 43 1d bc
       -0.018385245 -0.03811763 -0.042255733 -0.0095985895
0003f0 37 44 e5 bc fd 5e 45 bb 86 96 d6 bb df df b1 3c
       -0.027986629 -0.0030116432 -0.0065487055 0.021713195

fc.bias f4 [10]
000000 1d 4e a6 bc 82 30 cb bc c6 86 7c bc ff cb 6f bc
       -0.02030092 -0.024803404 -0.015412992 -0.014636039
000010 3b 45 3f 3c 66 c5 16 3c 44 80 4b 3c 36 00 16 bd
       0.011674221 0.009202337 0.012420718 -0.036621295
000020 36 b1 36 3d 0f a5 b8 3c
       0.044602595 0.022539644
